(stpt) liuerdong@bld:~/projects/STD_MAE$ python stdmae/run_maskst.py 
====================================================================================================
Layer (type:depth-idx)                             Output Shape              Param #
====================================================================================================
├─PatchEmbedding: 1-1                              [-1, 307, 96, 72]         --
|    └─Conv2d: 2-1                                 [-1, 96, 72, 1]           1,248
|    └─Identity: 2-2                               [-1, 96, 72, 1]           --
├─PositionalEncoding: 1-2                          [-1, 307, 72, 96]         --
├─TransformerLayersST: 1-3                         [-1, 5526, 96]            --
|    └─TransformerEncoder: 2-3                     [-1, 2, 96]               --
├─LayerNorm: 1-4                                   [-1, 5526, 96]            192
├─Linear: 1-5                                      [-1, 5526, 96]            9,312
├─TransformerLayersST: 1-6                         [-1, 22104, 96]           --
|    └─TransformerEncoder: 2-4                     [-1, 2, 96]               --
├─LayerNorm: 1-7                                   [-1, 22104, 96]           192
├─Linear: 1-8                                      [-1, 22104, 12]           1,164
====================================================================================================
Total params: 12,108
Trainable params: 12,108
Non-trainable params: 0
Total mult-adds (M): 1.76
====================================================================================================
Input size (MB): 1.01
Forward/backward pass size (MB): 26.36
Params size (MB): 0.05
Estimated Total Size (MB): 27.42
====================================================================================================

(stpt) liuerdong@bld:~/projects/STD_MAE$ python stdmae/run_mask.py 
====================================================================================================
Layer (type:depth-idx)                             Output Shape              Param #
====================================================================================================
├─PatchEmbedding: 1-1                              [-1, 307, 96, 72]         --
|    └─Conv2d: 2-1                                 [-1, 96, 72, 1]           1,248
|    └─Identity: 2-2                               [-1, 96, 72, 1]           --
├─PositionalEncoding: 1-2                          [-1, 307, 72, 96]         --
├─TransformerLayers: 1-3                           [-1, 307, 18, 96]         --
|    └─TransformerEncoder: 2-3                     [-1, 614, 96]             --
├─LayerNorm: 1-4                                   [-1, 307, 18, 96]         192
├─Linear: 1-5                                      [-1, 307, 18, 96]         9,312
├─TransformerLayers: 1-6                           [-1, 307, 72, 96]         --
|    └─TransformerEncoder: 2-4                     [-1, 614, 96]             --
├─LayerNorm: 1-7                                   [-1, 307, 72, 96]         192
├─Linear: 1-8                                      [-1, 307, 72, 12]         1,164
====================================================================================================
Total params: 12,108
Trainable params: 12,108
Non-trainable params: 0
Total mult-adds (M): 1.76
====================================================================================================
Input size (MB): 1.01
Forward/backward pass size (MB): 26.36
Params size (MB): 0.05
Estimated Total Size (MB): 27.42
…
